Loading model from epoch: 144
____________________________________________________________________________________________________
Layer (type)                     Output Shape          Param #     Connected to                     
====================================================================================================
data_input (InputLayer)          (None, 22139)         0                                            
____________________________________________________________________________________________________
condition_input (InputLayer)     (None, 5)             0                                            
____________________________________________________________________________________________________
addsingletondepth_1 (AddSingleto (None, 22139, 1)      0           data_input[0][0]                 
____________________________________________________________________________________________________
initial_dense_condition (Dense)  (None, 128)           640         condition_input[0][0]            
____________________________________________________________________________________________________
initial_causal_conv (Convolution (None, 22139, 128)    384         addsingletondepth_1[0][0]        
____________________________________________________________________________________________________
initial_condition_repeat (Repeat (None, 22139, 128)    0           initial_dense_condition[0][0]    
____________________________________________________________________________________________________
res_1_dense_condition_0_s0 (Dens (None, 256)           1280        condition_input[0][0]            
____________________________________________________________________________________________________
initial_data_condition_merge (Me (None, 22139, 128)    0           initial_causal_conv[0][0]        
                                                                   initial_condition_repeat[0][0]   
____________________________________________________________________________________________________
res_1_condition_reshape_d1_s0 (R (None, 128, 2)        0           res_1_dense_condition_0_s0[0][0] 
____________________________________________________________________________________________________
res_1_dilated_conv_d1_s0 (Atrous (None, 22139, 256)    98304       initial_data_condition_merge[0][0
____________________________________________________________________________________________________
res_1_condition_slice_1_d1_s0 (S (None, 128)           0           res_1_condition_reshape_d1_s0[0][
____________________________________________________________________________________________________
res_1_condition_slice_2_d1_s0 (S (None, 128)           0           res_1_condition_reshape_d1_s0[0][
____________________________________________________________________________________________________
res_30_data_slice_1_d1_s0 (Slice (None, 22139, 128)    0           res_1_dilated_conv_d1_s0[0][0]   
____________________________________________________________________________________________________
res_1_condition_repeat_1_d1_s0 ( (None, 22139, 128)    0           res_1_condition_slice_1_d1_s0[0][
____________________________________________________________________________________________________
res_30_data_slice_2_d1_s0 (Slice (None, 22139, 128)    0           res_1_dilated_conv_d1_s0[0][0]   
____________________________________________________________________________________________________
res_1_condition_repeat_2_d1_s0 ( (None, 22139, 128)    0           res_1_condition_slice_2_d1_s0[0][
____________________________________________________________________________________________________
res_1_merge_1_d1_s0 (Merge)      (None, 22139, 128)    0           res_30_data_slice_1_d1_s0[0][0]  
                                                                   res_1_condition_repeat_1_d1_s0[0]
____________________________________________________________________________________________________
res_1_merge_2_d1_s0 (Merge)      (None, 22139, 128)    0           res_30_data_slice_2_d1_s0[0][0]  
                                                                   res_1_condition_repeat_2_d1_s0[0]
____________________________________________________________________________________________________
activation_2 (Activation)        (None, 22139, 128)    0           res_1_merge_1_d1_s0[0][0]        
____________________________________________________________________________________________________
activation_3 (Activation)        (None, 22139, 128)    0           res_1_merge_2_d1_s0[0][0]        
____________________________________________________________________________________________________
res_1_gated_activation_0_s0 (Mer (None, 22139, 128)    0           activation_2[0][0]               
                                                                   activation_3[0][0]               
____________________________________________________________________________________________________
convolution1d_1 (Convolution1D)  (None, 22139, 256)    32768       res_1_gated_activation_0_s0[0][0]
____________________________________________________________________________________________________
res_1_data_slice_3_d1_s0 (Slice) (None, 22139, 128)    0           convolution1d_1[0][0]            
____________________________________________________________________________________________________
res_2_dense_condition_1_s0 (Dens (None, 256)           1280        condition_input[0][0]            
____________________________________________________________________________________________________
merge_1 (Merge)                  (None, 22139, 128)    0           initial_data_condition_merge[0][0
                                                                   res_1_data_slice_3_d1_s0[0][0]   
____________________________________________________________________________________________________
res_2_condition_reshape_d2_s0 (R (None, 128, 2)        0           res_2_dense_condition_1_s0[0][0] 
____________________________________________________________________________________________________
res_2_dilated_conv_d2_s0 (Atrous (None, 22139, 256)    98304       merge_1[0][0]                    
____________________________________________________________________________________________________
res_2_condition_slice_1_d2_s0 (S (None, 128)           0           res_2_condition_reshape_d2_s0[0][
____________________________________________________________________________________________________
res_2_condition_slice_2_d2_s0 (S (None, 128)           0           res_2_condition_reshape_d2_s0[0][
____________________________________________________________________________________________________
res_30_data_slice_1_d2_s0 (Slice (None, 22139, 128)    0           res_2_dilated_conv_d2_s0[0][0]   
____________________________________________________________________________________________________
res_2_condition_repeat_1_d2_s0 ( (None, 22139, 128)    0           res_2_condition_slice_1_d2_s0[0][
____________________________________________________________________________________________________
res_30_data_slice_2_d2_s0 (Slice (None, 22139, 128)    0           res_2_dilated_conv_d2_s0[0][0]   
____________________________________________________________________________________________________
res_2_condition_repeat_2_d2_s0 ( (None, 22139, 128)    0           res_2_condition_slice_2_d2_s0[0][
____________________________________________________________________________________________________
res_2_merge_1_d2_s0 (Merge)      (None, 22139, 128)    0           res_30_data_slice_1_d2_s0[0][0]  
                                                                   res_2_condition_repeat_1_d2_s0[0]
____________________________________________________________________________________________________
res_2_merge_2_d2_s0 (Merge)      (None, 22139, 128)    0           res_30_data_slice_2_d2_s0[0][0]  
                                                                   res_2_condition_repeat_2_d2_s0[0]
____________________________________________________________________________________________________
activation_4 (Activation)        (None, 22139, 128)    0           res_2_merge_1_d2_s0[0][0]        
____________________________________________________________________________________________________
activation_5 (Activation)        (None, 22139, 128)    0           res_2_merge_2_d2_s0[0][0]        
____________________________________________________________________________________________________
res_2_gated_activation_1_s0 (Mer (None, 22139, 128)    0           activation_4[0][0]               
                                                                   activation_5[0][0]               
____________________________________________________________________________________________________
convolution1d_2 (Convolution1D)  (None, 22139, 256)    32768       res_2_gated_activation_1_s0[0][0]
____________________________________________________________________________________________________
res_2_data_slice_3_d2_s0 (Slice) (None, 22139, 128)    0           convolution1d_2[0][0]            
____________________________________________________________________________________________________
res_3_dense_condition_2_s0 (Dens (None, 256)           1280        condition_input[0][0]            
____________________________________________________________________________________________________
merge_2 (Merge)                  (None, 22139, 128)    0           merge_1[0][0]                    
                                                                   res_2_data_slice_3_d2_s0[0][0]   
____________________________________________________________________________________________________
res_3_condition_reshape_d4_s0 (R (None, 128, 2)        0           res_3_dense_condition_2_s0[0][0] 
____________________________________________________________________________________________________
res_3_dilated_conv_d4_s0 (Atrous (None, 22139, 256)    98304       merge_2[0][0]                    
____________________________________________________________________________________________________
res_3_condition_slice_1_d4_s0 (S (None, 128)           0           res_3_condition_reshape_d4_s0[0][
____________________________________________________________________________________________________
res_3_condition_slice_2_d4_s0 (S (None, 128)           0           res_3_condition_reshape_d4_s0[0][
____________________________________________________________________________________________________
res_30_data_slice_1_d4_s0 (Slice (None, 22139, 128)    0           res_3_dilated_conv_d4_s0[0][0]   
____________________________________________________________________________________________________
res_3_condition_repeat_1_d4_s0 ( (None, 22139, 128)    0           res_3_condition_slice_1_d4_s0[0][
____________________________________________________________________________________________________
res_30_data_slice_2_d4_s0 (Slice (None, 22139, 128)    0           res_3_dilated_conv_d4_s0[0][0]   
____________________________________________________________________________________________________
res_3_condition_repeat_2_d4_s0 ( (None, 22139, 128)    0           res_3_condition_slice_2_d4_s0[0][
____________________________________________________________________________________________________
res_3_merge_1_d4_s0 (Merge)      (None, 22139, 128)    0           res_30_data_slice_1_d4_s0[0][0]  
                                                                   res_3_condition_repeat_1_d4_s0[0]
____________________________________________________________________________________________________
res_3_merge_2_d4_s0 (Merge)      (None, 22139, 128)    0           res_30_data_slice_2_d4_s0[0][0]  
                                                                   res_3_condition_repeat_2_d4_s0[0]
____________________________________________________________________________________________________
activation_6 (Activation)        (None, 22139, 128)    0           res_3_merge_1_d4_s0[0][0]        
____________________________________________________________________________________________________
activation_7 (Activation)        (None, 22139, 128)    0           res_3_merge_2_d4_s0[0][0]        
____________________________________________________________________________________________________
res_3_gated_activation_2_s0 (Mer (None, 22139, 128)    0           activation_6[0][0]               
                                                                   activation_7[0][0]               
____________________________________________________________________________________________________
convolution1d_3 (Convolution1D)  (None, 22139, 256)    32768       res_3_gated_activation_2_s0[0][0]
____________________________________________________________________________________________________
res_3_data_slice_3_d4_s0 (Slice) (None, 22139, 128)    0           convolution1d_3[0][0]            
____________________________________________________________________________________________________
res_4_dense_condition_3_s0 (Dens (None, 256)           1280        condition_input[0][0]            
____________________________________________________________________________________________________
merge_3 (Merge)                  (None, 22139, 128)    0           merge_2[0][0]                    
                                                                   res_3_data_slice_3_d4_s0[0][0]   
____________________________________________________________________________________________________
res_4_condition_reshape_d8_s0 (R (None, 128, 2)        0           res_4_dense_condition_3_s0[0][0] 
____________________________________________________________________________________________________
res_4_dilated_conv_d8_s0 (Atrous (None, 22139, 256)    98304       merge_3[0][0]                    
____________________________________________________________________________________________________
res_4_condition_slice_1_d8_s0 (S (None, 128)           0           res_4_condition_reshape_d8_s0[0][
____________________________________________________________________________________________________
res_4_condition_slice_2_d8_s0 (S (None, 128)           0           res_4_condition_reshape_d8_s0[0][
____________________________________________________________________________________________________
res_30_data_slice_1_d8_s0 (Slice (None, 22139, 128)    0           res_4_dilated_conv_d8_s0[0][0]   
____________________________________________________________________________________________________
res_4_condition_repeat_1_d8_s0 ( (None, 22139, 128)    0           res_4_condition_slice_1_d8_s0[0][
____________________________________________________________________________________________________
res_30_data_slice_2_d8_s0 (Slice (None, 22139, 128)    0           res_4_dilated_conv_d8_s0[0][0]   
____________________________________________________________________________________________________
res_4_condition_repeat_2_d8_s0 ( (None, 22139, 128)    0           res_4_condition_slice_2_d8_s0[0][
____________________________________________________________________________________________________
res_4_merge_1_d8_s0 (Merge)      (None, 22139, 128)    0           res_30_data_slice_1_d8_s0[0][0]  
                                                                   res_4_condition_repeat_1_d8_s0[0]
____________________________________________________________________________________________________
res_4_merge_2_d8_s0 (Merge)      (None, 22139, 128)    0           res_30_data_slice_2_d8_s0[0][0]  
                                                                   res_4_condition_repeat_2_d8_s0[0]
____________________________________________________________________________________________________
activation_8 (Activation)        (None, 22139, 128)    0           res_4_merge_1_d8_s0[0][0]        
____________________________________________________________________________________________________
activation_9 (Activation)        (None, 22139, 128)    0           res_4_merge_2_d8_s0[0][0]        
____________________________________________________________________________________________________
res_4_gated_activation_3_s0 (Mer (None, 22139, 128)    0           activation_8[0][0]               
                                                                   activation_9[0][0]               
____________________________________________________________________________________________________
convolution1d_4 (Convolution1D)  (None, 22139, 256)    32768       res_4_gated_activation_3_s0[0][0]
____________________________________________________________________________________________________
res_4_data_slice_3_d8_s0 (Slice) (None, 22139, 128)    0           convolution1d_4[0][0]            
____________________________________________________________________________________________________
res_5_dense_condition_4_s0 (Dens (None, 256)           1280        condition_input[0][0]            
____________________________________________________________________________________________________
merge_4 (Merge)                  (None, 22139, 128)    0           merge_3[0][0]                    
                                                                   res_4_data_slice_3_d8_s0[0][0]   
____________________________________________________________________________________________________
res_5_condition_reshape_d16_s0 ( (None, 128, 2)        0           res_5_dense_condition_4_s0[0][0] 
____________________________________________________________________________________________________
res_5_dilated_conv_d16_s0 (Atrou (None, 22139, 256)    98304       merge_4[0][0]                    
____________________________________________________________________________________________________
res_5_condition_slice_1_d16_s0 ( (None, 128)           0           res_5_condition_reshape_d16_s0[0]
____________________________________________________________________________________________________
res_5_condition_slice_2_d16_s0 ( (None, 128)           0           res_5_condition_reshape_d16_s0[0]
____________________________________________________________________________________________________
res_30_data_slice_1_d16_s0 (Slic (None, 22139, 128)    0           res_5_dilated_conv_d16_s0[0][0]  
____________________________________________________________________________________________________
res_5_condition_repeat_1_d16_s0  (None, 22139, 128)    0           res_5_condition_slice_1_d16_s0[0]
____________________________________________________________________________________________________
res_30_data_slice_2_d16_s0 (Slic (None, 22139, 128)    0           res_5_dilated_conv_d16_s0[0][0]  
____________________________________________________________________________________________________
res_5_condition_repeat_2_d16_s0  (None, 22139, 128)    0           res_5_condition_slice_2_d16_s0[0]
____________________________________________________________________________________________________
res_5_merge_1_d16_s0 (Merge)     (None, 22139, 128)    0           res_30_data_slice_1_d16_s0[0][0] 
                                                                   res_5_condition_repeat_1_d16_s0[0
____________________________________________________________________________________________________
res_5_merge_2_d16_s0 (Merge)     (None, 22139, 128)    0           res_30_data_slice_2_d16_s0[0][0] 
                                                                   res_5_condition_repeat_2_d16_s0[0
____________________________________________________________________________________________________
activation_10 (Activation)       (None, 22139, 128)    0           res_5_merge_1_d16_s0[0][0]       
____________________________________________________________________________________________________
activation_11 (Activation)       (None, 22139, 128)    0           res_5_merge_2_d16_s0[0][0]       
____________________________________________________________________________________________________
res_5_gated_activation_4_s0 (Mer (None, 22139, 128)    0           activation_10[0][0]              
                                                                   activation_11[0][0]              
____________________________________________________________________________________________________
convolution1d_5 (Convolution1D)  (None, 22139, 256)    32768       res_5_gated_activation_4_s0[0][0]
____________________________________________________________________________________________________
res_5_data_slice_3_d16_s0 (Slice (None, 22139, 128)    0           convolution1d_5[0][0]            
____________________________________________________________________________________________________
res_6_dense_condition_5_s0 (Dens (None, 256)           1280        condition_input[0][0]            
____________________________________________________________________________________________________
merge_5 (Merge)                  (None, 22139, 128)    0           merge_4[0][0]                    
                                                                   res_5_data_slice_3_d16_s0[0][0]  
____________________________________________________________________________________________________
res_6_condition_reshape_d32_s0 ( (None, 128, 2)        0           res_6_dense_condition_5_s0[0][0] 
____________________________________________________________________________________________________
res_6_dilated_conv_d32_s0 (Atrou (None, 22139, 256)    98304       merge_5[0][0]                    
____________________________________________________________________________________________________
res_6_condition_slice_1_d32_s0 ( (None, 128)           0           res_6_condition_reshape_d32_s0[0]
____________________________________________________________________________________________________
res_6_condition_slice_2_d32_s0 ( (None, 128)           0           res_6_condition_reshape_d32_s0[0]
____________________________________________________________________________________________________
res_30_data_slice_1_d32_s0 (Slic (None, 22139, 128)    0           res_6_dilated_conv_d32_s0[0][0]  
____________________________________________________________________________________________________
res_6_condition_repeat_1_d32_s0  (None, 22139, 128)    0           res_6_condition_slice_1_d32_s0[0]
____________________________________________________________________________________________________
res_30_data_slice_2_d32_s0 (Slic (None, 22139, 128)    0           res_6_dilated_conv_d32_s0[0][0]  
____________________________________________________________________________________________________
res_6_condition_repeat_2_d32_s0  (None, 22139, 128)    0           res_6_condition_slice_2_d32_s0[0]
____________________________________________________________________________________________________
res_6_merge_1_d32_s0 (Merge)     (None, 22139, 128)    0           res_30_data_slice_1_d32_s0[0][0] 
                                                                   res_6_condition_repeat_1_d32_s0[0
____________________________________________________________________________________________________
res_6_merge_2_d32_s0 (Merge)     (None, 22139, 128)    0           res_30_data_slice_2_d32_s0[0][0] 
                                                                   res_6_condition_repeat_2_d32_s0[0
____________________________________________________________________________________________________
activation_12 (Activation)       (None, 22139, 128)    0           res_6_merge_1_d32_s0[0][0]       
____________________________________________________________________________________________________
activation_13 (Activation)       (None, 22139, 128)    0           res_6_merge_2_d32_s0[0][0]       
____________________________________________________________________________________________________
res_6_gated_activation_5_s0 (Mer (None, 22139, 128)    0           activation_12[0][0]              
                                                                   activation_13[0][0]              
____________________________________________________________________________________________________
convolution1d_6 (Convolution1D)  (None, 22139, 256)    32768       res_6_gated_activation_5_s0[0][0]
____________________________________________________________________________________________________
res_6_data_slice_3_d32_s0 (Slice (None, 22139, 128)    0           convolution1d_6[0][0]            
____________________________________________________________________________________________________
res_7_dense_condition_6_s0 (Dens (None, 256)           1280        condition_input[0][0]            
____________________________________________________________________________________________________
merge_6 (Merge)                  (None, 22139, 128)    0           merge_5[0][0]                    
                                                                   res_6_data_slice_3_d32_s0[0][0]  
____________________________________________________________________________________________________
res_7_condition_reshape_d64_s0 ( (None, 128, 2)        0           res_7_dense_condition_6_s0[0][0] 
____________________________________________________________________________________________________
res_7_dilated_conv_d64_s0 (Atrou (None, 22139, 256)    98304       merge_6[0][0]                    
____________________________________________________________________________________________________
res_7_condition_slice_1_d64_s0 ( (None, 128)           0           res_7_condition_reshape_d64_s0[0]
____________________________________________________________________________________________________
res_7_condition_slice_2_d64_s0 ( (None, 128)           0           res_7_condition_reshape_d64_s0[0]
____________________________________________________________________________________________________
res_30_data_slice_1_d64_s0 (Slic (None, 22139, 128)    0           res_7_dilated_conv_d64_s0[0][0]  
____________________________________________________________________________________________________
res_7_condition_repeat_1_d64_s0  (None, 22139, 128)    0           res_7_condition_slice_1_d64_s0[0]
____________________________________________________________________________________________________
res_30_data_slice_2_d64_s0 (Slic (None, 22139, 128)    0           res_7_dilated_conv_d64_s0[0][0]  
____________________________________________________________________________________________________
res_7_condition_repeat_2_d64_s0  (None, 22139, 128)    0           res_7_condition_slice_2_d64_s0[0]
____________________________________________________________________________________________________
res_7_merge_1_d64_s0 (Merge)     (None, 22139, 128)    0           res_30_data_slice_1_d64_s0[0][0] 
                                                                   res_7_condition_repeat_1_d64_s0[0
____________________________________________________________________________________________________
res_7_merge_2_d64_s0 (Merge)     (None, 22139, 128)    0           res_30_data_slice_2_d64_s0[0][0] 
                                                                   res_7_condition_repeat_2_d64_s0[0
____________________________________________________________________________________________________
activation_14 (Activation)       (None, 22139, 128)    0           res_7_merge_1_d64_s0[0][0]       
____________________________________________________________________________________________________
activation_15 (Activation)       (None, 22139, 128)    0           res_7_merge_2_d64_s0[0][0]       
____________________________________________________________________________________________________
res_7_gated_activation_6_s0 (Mer (None, 22139, 128)    0           activation_14[0][0]              
                                                                   activation_15[0][0]              
____________________________________________________________________________________________________
convolution1d_7 (Convolution1D)  (None, 22139, 256)    32768       res_7_gated_activation_6_s0[0][0]
____________________________________________________________________________________________________
res_7_data_slice_3_d64_s0 (Slice (None, 22139, 128)    0           convolution1d_7[0][0]            
____________________________________________________________________________________________________
res_8_dense_condition_7_s0 (Dens (None, 256)           1280        condition_input[0][0]            
____________________________________________________________________________________________________
merge_7 (Merge)                  (None, 22139, 128)    0           merge_6[0][0]                    
                                                                   res_7_data_slice_3_d64_s0[0][0]  
____________________________________________________________________________________________________
res_8_condition_reshape_d128_s0  (None, 128, 2)        0           res_8_dense_condition_7_s0[0][0] 
____________________________________________________________________________________________________
res_8_dilated_conv_d128_s0 (Atro (None, 22139, 256)    98304       merge_7[0][0]                    
____________________________________________________________________________________________________
res_8_condition_slice_1_d128_s0  (None, 128)           0           res_8_condition_reshape_d128_s0[0
____________________________________________________________________________________________________
res_8_condition_slice_2_d128_s0  (None, 128)           0           res_8_condition_reshape_d128_s0[0
____________________________________________________________________________________________________
res_30_data_slice_1_d128_s0 (Sli (None, 22139, 128)    0           res_8_dilated_conv_d128_s0[0][0] 
____________________________________________________________________________________________________
res_8_condition_repeat_1_d128_s0 (None, 22139, 128)    0           res_8_condition_slice_1_d128_s0[0
____________________________________________________________________________________________________
res_30_data_slice_2_d128_s0 (Sli (None, 22139, 128)    0           res_8_dilated_conv_d128_s0[0][0] 
____________________________________________________________________________________________________
res_8_condition_repeat_2_d128_s0 (None, 22139, 128)    0           res_8_condition_slice_2_d128_s0[0
____________________________________________________________________________________________________
res_8_merge_1_d128_s0 (Merge)    (None, 22139, 128)    0           res_30_data_slice_1_d128_s0[0][0]
                                                                   res_8_condition_repeat_1_d128_s0[
____________________________________________________________________________________________________
res_8_merge_2_d128_s0 (Merge)    (None, 22139, 128)    0           res_30_data_slice_2_d128_s0[0][0]
                                                                   res_8_condition_repeat_2_d128_s0[
____________________________________________________________________________________________________
activation_16 (Activation)       (None, 22139, 128)    0           res_8_merge_1_d128_s0[0][0]      
____________________________________________________________________________________________________
activation_17 (Activation)       (None, 22139, 128)    0           res_8_merge_2_d128_s0[0][0]      
____________________________________________________________________________________________________
res_8_gated_activation_7_s0 (Mer (None, 22139, 128)    0           activation_16[0][0]              
                                                                   activation_17[0][0]              
____________________________________________________________________________________________________
convolution1d_8 (Convolution1D)  (None, 22139, 256)    32768       res_8_gated_activation_7_s0[0][0]
____________________________________________________________________________________________________
res_8_data_slice_3_d128_s0 (Slic (None, 22139, 128)    0           convolution1d_8[0][0]            
____________________________________________________________________________________________________
res_9_dense_condition_8_s0 (Dens (None, 256)           1280        condition_input[0][0]            
____________________________________________________________________________________________________
merge_8 (Merge)                  (None, 22139, 128)    0           merge_7[0][0]                    
                                                                   res_8_data_slice_3_d128_s0[0][0] 
____________________________________________________________________________________________________
res_9_condition_reshape_d256_s0  (None, 128, 2)        0           res_9_dense_condition_8_s0[0][0] 
____________________________________________________________________________________________________
res_9_dilated_conv_d256_s0 (Atro (None, 22139, 256)    98304       merge_8[0][0]                    
____________________________________________________________________________________________________
res_9_condition_slice_1_d256_s0  (None, 128)           0           res_9_condition_reshape_d256_s0[0
____________________________________________________________________________________________________
res_9_condition_slice_2_d256_s0  (None, 128)           0           res_9_condition_reshape_d256_s0[0
____________________________________________________________________________________________________
res_30_data_slice_1_d256_s0 (Sli (None, 22139, 128)    0           res_9_dilated_conv_d256_s0[0][0] 
____________________________________________________________________________________________________
res_9_condition_repeat_1_d256_s0 (None, 22139, 128)    0           res_9_condition_slice_1_d256_s0[0
____________________________________________________________________________________________________
res_30_data_slice_2_d256_s0 (Sli (None, 22139, 128)    0           res_9_dilated_conv_d256_s0[0][0] 
____________________________________________________________________________________________________
res_9_condition_repeat_2_d256_s0 (None, 22139, 128)    0           res_9_condition_slice_2_d256_s0[0
____________________________________________________________________________________________________
res_9_merge_1_d256_s0 (Merge)    (None, 22139, 128)    0           res_30_data_slice_1_d256_s0[0][0]
                                                                   res_9_condition_repeat_1_d256_s0[
____________________________________________________________________________________________________
res_9_merge_2_d256_s0 (Merge)    (None, 22139, 128)    0           res_30_data_slice_2_d256_s0[0][0]
                                                                   res_9_condition_repeat_2_d256_s0[
____________________________________________________________________________________________________
activation_18 (Activation)       (None, 22139, 128)    0           res_9_merge_1_d256_s0[0][0]      
____________________________________________________________________________________________________
activation_19 (Activation)       (None, 22139, 128)    0           res_9_merge_2_d256_s0[0][0]      
____________________________________________________________________________________________________
res_9_gated_activation_8_s0 (Mer (None, 22139, 128)    0           activation_18[0][0]              
                                                                   activation_19[0][0]              
____________________________________________________________________________________________________
convolution1d_9 (Convolution1D)  (None, 22139, 256)    32768       res_9_gated_activation_8_s0[0][0]
____________________________________________________________________________________________________
res_9_data_slice_3_d256_s0 (Slic (None, 22139, 128)    0           convolution1d_9[0][0]            
____________________________________________________________________________________________________
res_10_dense_condition_9_s0 (Den (None, 256)           1280        condition_input[0][0]            
____________________________________________________________________________________________________
merge_9 (Merge)                  (None, 22139, 128)    0           merge_8[0][0]                    
                                                                   res_9_data_slice_3_d256_s0[0][0] 
____________________________________________________________________________________________________
res_10_condition_reshape_d512_s0 (None, 128, 2)        0           res_10_dense_condition_9_s0[0][0]
____________________________________________________________________________________________________
res_10_dilated_conv_d512_s0 (Atr (None, 22139, 256)    98304       merge_9[0][0]                    
____________________________________________________________________________________________________
res_10_condition_slice_1_d512_s0 (None, 128)           0           res_10_condition_reshape_d512_s0[
____________________________________________________________________________________________________
res_10_condition_slice_2_d512_s0 (None, 128)           0           res_10_condition_reshape_d512_s0[
____________________________________________________________________________________________________
res_30_data_slice_1_d512_s0 (Sli (None, 22139, 128)    0           res_10_dilated_conv_d512_s0[0][0]
____________________________________________________________________________________________________
res_10_condition_repeat_1_d512_s (None, 22139, 128)    0           res_10_condition_slice_1_d512_s0[
____________________________________________________________________________________________________
res_30_data_slice_2_d512_s0 (Sli (None, 22139, 128)    0           res_10_dilated_conv_d512_s0[0][0]
____________________________________________________________________________________________________
res_10_condition_repeat_2_d512_s (None, 22139, 128)    0           res_10_condition_slice_2_d512_s0[
____________________________________________________________________________________________________
res_10_merge_1_d512_s0 (Merge)   (None, 22139, 128)    0           res_30_data_slice_1_d512_s0[0][0]
                                                                   res_10_condition_repeat_1_d512_s0
____________________________________________________________________________________________________
res_10_merge_2_d512_s0 (Merge)   (None, 22139, 128)    0           res_30_data_slice_2_d512_s0[0][0]
                                                                   res_10_condition_repeat_2_d512_s0
____________________________________________________________________________________________________
activation_20 (Activation)       (None, 22139, 128)    0           res_10_merge_1_d512_s0[0][0]     
____________________________________________________________________________________________________
activation_21 (Activation)       (None, 22139, 128)    0           res_10_merge_2_d512_s0[0][0]     
____________________________________________________________________________________________________
res_10_gated_activation_9_s0 (Me (None, 22139, 128)    0           activation_20[0][0]              
                                                                   activation_21[0][0]              
____________________________________________________________________________________________________
convolution1d_10 (Convolution1D) (None, 22139, 256)    32768       res_10_gated_activation_9_s0[0][0
____________________________________________________________________________________________________
res_10_data_slice_3_d512_s0 (Sli (None, 22139, 128)    0           convolution1d_10[0][0]           
____________________________________________________________________________________________________
res_11_dense_condition_0_s1 (Den (None, 256)           1280        condition_input[0][0]            
____________________________________________________________________________________________________
merge_10 (Merge)                 (None, 22139, 128)    0           merge_9[0][0]                    
                                                                   res_10_data_slice_3_d512_s0[0][0]
____________________________________________________________________________________________________
res_11_condition_reshape_d1_s1 ( (None, 128, 2)        0           res_11_dense_condition_0_s1[0][0]
____________________________________________________________________________________________________
res_11_dilated_conv_d1_s1 (Atrou (None, 22139, 256)    98304       merge_10[0][0]                   
____________________________________________________________________________________________________
res_11_condition_slice_1_d1_s1 ( (None, 128)           0           res_11_condition_reshape_d1_s1[0]
____________________________________________________________________________________________________
res_11_condition_slice_2_d1_s1 ( (None, 128)           0           res_11_condition_reshape_d1_s1[0]
____________________________________________________________________________________________________
res_30_data_slice_1_d1_s1 (Slice (None, 22139, 128)    0           res_11_dilated_conv_d1_s1[0][0]  
____________________________________________________________________________________________________
res_11_condition_repeat_1_d1_s1  (None, 22139, 128)    0           res_11_condition_slice_1_d1_s1[0]
____________________________________________________________________________________________________
res_30_data_slice_2_d1_s1 (Slice (None, 22139, 128)    0           res_11_dilated_conv_d1_s1[0][0]  
____________________________________________________________________________________________________
res_11_condition_repeat_2_d1_s1  (None, 22139, 128)    0           res_11_condition_slice_2_d1_s1[0]
____________________________________________________________________________________________________
res_11_merge_1_d1_s1 (Merge)     (None, 22139, 128)    0           res_30_data_slice_1_d1_s1[0][0]  
                                                                   res_11_condition_repeat_1_d1_s1[0
____________________________________________________________________________________________________
res_11_merge_2_d1_s1 (Merge)     (None, 22139, 128)    0           res_30_data_slice_2_d1_s1[0][0]  
                                                                   res_11_condition_repeat_2_d1_s1[0
____________________________________________________________________________________________________
activation_22 (Activation)       (None, 22139, 128)    0           res_11_merge_1_d1_s1[0][0]       
____________________________________________________________________________________________________
activation_23 (Activation)       (None, 22139, 128)    0           res_11_merge_2_d1_s1[0][0]       
____________________________________________________________________________________________________
res_11_gated_activation_0_s1 (Me (None, 22139, 128)    0           activation_22[0][0]              
                                                                   activation_23[0][0]              
____________________________________________________________________________________________________
convolution1d_11 (Convolution1D) (None, 22139, 256)    32768       res_11_gated_activation_0_s1[0][0
____________________________________________________________________________________________________
res_11_data_slice_3_d1_s1 (Slice (None, 22139, 128)    0           convolution1d_11[0][0]           
____________________________________________________________________________________________________
res_12_dense_condition_1_s1 (Den (None, 256)           1280        condition_input[0][0]            
____________________________________________________________________________________________________
merge_11 (Merge)                 (None, 22139, 128)    0           merge_10[0][0]                   
                                                                   res_11_data_slice_3_d1_s1[0][0]  
____________________________________________________________________________________________________
res_12_condition_reshape_d2_s1 ( (None, 128, 2)        0           res_12_dense_condition_1_s1[0][0]
____________________________________________________________________________________________________
res_12_dilated_conv_d2_s1 (Atrou (None, 22139, 256)    98304       merge_11[0][0]                   
____________________________________________________________________________________________________
res_12_condition_slice_1_d2_s1 ( (None, 128)           0           res_12_condition_reshape_d2_s1[0]
____________________________________________________________________________________________________
res_12_condition_slice_2_d2_s1 ( (None, 128)           0           res_12_condition_reshape_d2_s1[0]
____________________________________________________________________________________________________
res_30_data_slice_1_d2_s1 (Slice (None, 22139, 128)    0           res_12_dilated_conv_d2_s1[0][0]  
____________________________________________________________________________________________________
res_12_condition_repeat_1_d2_s1  (None, 22139, 128)    0           res_12_condition_slice_1_d2_s1[0]
____________________________________________________________________________________________________
res_30_data_slice_2_d2_s1 (Slice (None, 22139, 128)    0           res_12_dilated_conv_d2_s1[0][0]  
____________________________________________________________________________________________________
res_12_condition_repeat_2_d2_s1  (None, 22139, 128)    0           res_12_condition_slice_2_d2_s1[0]
____________________________________________________________________________________________________
res_12_merge_1_d2_s1 (Merge)     (None, 22139, 128)    0           res_30_data_slice_1_d2_s1[0][0]  
                                                                   res_12_condition_repeat_1_d2_s1[0
____________________________________________________________________________________________________
res_12_merge_2_d2_s1 (Merge)     (None, 22139, 128)    0           res_30_data_slice_2_d2_s1[0][0]  
                                                                   res_12_condition_repeat_2_d2_s1[0
____________________________________________________________________________________________________
activation_24 (Activation)       (None, 22139, 128)    0           res_12_merge_1_d2_s1[0][0]       
____________________________________________________________________________________________________
activation_25 (Activation)       (None, 22139, 128)    0           res_12_merge_2_d2_s1[0][0]       
____________________________________________________________________________________________________
res_12_gated_activation_1_s1 (Me (None, 22139, 128)    0           activation_24[0][0]              
                                                                   activation_25[0][0]              
____________________________________________________________________________________________________
convolution1d_12 (Convolution1D) (None, 22139, 256)    32768       res_12_gated_activation_1_s1[0][0
____________________________________________________________________________________________________
res_12_data_slice_3_d2_s1 (Slice (None, 22139, 128)    0           convolution1d_12[0][0]           
____________________________________________________________________________________________________
res_13_dense_condition_2_s1 (Den (None, 256)           1280        condition_input[0][0]            
____________________________________________________________________________________________________
merge_12 (Merge)                 (None, 22139, 128)    0           merge_11[0][0]                   
                                                                   res_12_data_slice_3_d2_s1[0][0]  
____________________________________________________________________________________________________
res_13_condition_reshape_d4_s1 ( (None, 128, 2)        0           res_13_dense_condition_2_s1[0][0]
____________________________________________________________________________________________________
res_13_dilated_conv_d4_s1 (Atrou (None, 22139, 256)    98304       merge_12[0][0]                   
____________________________________________________________________________________________________
res_13_condition_slice_1_d4_s1 ( (None, 128)           0           res_13_condition_reshape_d4_s1[0]
____________________________________________________________________________________________________
res_13_condition_slice_2_d4_s1 ( (None, 128)           0           res_13_condition_reshape_d4_s1[0]
____________________________________________________________________________________________________
res_30_data_slice_1_d4_s1 (Slice (None, 22139, 128)    0           res_13_dilated_conv_d4_s1[0][0]  
____________________________________________________________________________________________________
res_13_condition_repeat_1_d4_s1  (None, 22139, 128)    0           res_13_condition_slice_1_d4_s1[0]
____________________________________________________________________________________________________
res_30_data_slice_2_d4_s1 (Slice (None, 22139, 128)    0           res_13_dilated_conv_d4_s1[0][0]  
____________________________________________________________________________________________________
res_13_condition_repeat_2_d4_s1  (None, 22139, 128)    0           res_13_condition_slice_2_d4_s1[0]
____________________________________________________________________________________________________
res_13_merge_1_d4_s1 (Merge)     (None, 22139, 128)    0           res_30_data_slice_1_d4_s1[0][0]  
                                                                   res_13_condition_repeat_1_d4_s1[0
____________________________________________________________________________________________________
res_13_merge_2_d4_s1 (Merge)     (None, 22139, 128)    0           res_30_data_slice_2_d4_s1[0][0]  
                                                                   res_13_condition_repeat_2_d4_s1[0
____________________________________________________________________________________________________
activation_26 (Activation)       (None, 22139, 128)    0           res_13_merge_1_d4_s1[0][0]       
____________________________________________________________________________________________________
activation_27 (Activation)       (None, 22139, 128)    0           res_13_merge_2_d4_s1[0][0]       
____________________________________________________________________________________________________
res_13_gated_activation_2_s1 (Me (None, 22139, 128)    0           activation_26[0][0]              
                                                                   activation_27[0][0]              
____________________________________________________________________________________________________
convolution1d_13 (Convolution1D) (None, 22139, 256)    32768       res_13_gated_activation_2_s1[0][0
____________________________________________________________________________________________________
res_13_data_slice_3_d4_s1 (Slice (None, 22139, 128)    0           convolution1d_13[0][0]           
____________________________________________________________________________________________________
res_14_dense_condition_3_s1 (Den (None, 256)           1280        condition_input[0][0]            
____________________________________________________________________________________________________
merge_13 (Merge)                 (None, 22139, 128)    0           merge_12[0][0]                   
                                                                   res_13_data_slice_3_d4_s1[0][0]  
____________________________________________________________________________________________________
res_14_condition_reshape_d8_s1 ( (None, 128, 2)        0           res_14_dense_condition_3_s1[0][0]
____________________________________________________________________________________________________
res_14_dilated_conv_d8_s1 (Atrou (None, 22139, 256)    98304       merge_13[0][0]                   
____________________________________________________________________________________________________
res_14_condition_slice_1_d8_s1 ( (None, 128)           0           res_14_condition_reshape_d8_s1[0]
____________________________________________________________________________________________________
res_14_condition_slice_2_d8_s1 ( (None, 128)           0           res_14_condition_reshape_d8_s1[0]
____________________________________________________________________________________________________
res_30_data_slice_1_d8_s1 (Slice (None, 22139, 128)    0           res_14_dilated_conv_d8_s1[0][0]  
____________________________________________________________________________________________________
res_14_condition_repeat_1_d8_s1  (None, 22139, 128)    0           res_14_condition_slice_1_d8_s1[0]
____________________________________________________________________________________________________
res_30_data_slice_2_d8_s1 (Slice (None, 22139, 128)    0           res_14_dilated_conv_d8_s1[0][0]  
____________________________________________________________________________________________________
res_14_condition_repeat_2_d8_s1  (None, 22139, 128)    0           res_14_condition_slice_2_d8_s1[0]
____________________________________________________________________________________________________
res_14_merge_1_d8_s1 (Merge)     (None, 22139, 128)    0           res_30_data_slice_1_d8_s1[0][0]  
                                                                   res_14_condition_repeat_1_d8_s1[0
____________________________________________________________________________________________________
res_14_merge_2_d8_s1 (Merge)     (None, 22139, 128)    0           res_30_data_slice_2_d8_s1[0][0]  
                                                                   res_14_condition_repeat_2_d8_s1[0
____________________________________________________________________________________________________
activation_28 (Activation)       (None, 22139, 128)    0           res_14_merge_1_d8_s1[0][0]       
____________________________________________________________________________________________________
activation_29 (Activation)       (None, 22139, 128)    0           res_14_merge_2_d8_s1[0][0]       
____________________________________________________________________________________________________
res_14_gated_activation_3_s1 (Me (None, 22139, 128)    0           activation_28[0][0]              
                                                                   activation_29[0][0]              
____________________________________________________________________________________________________
convolution1d_14 (Convolution1D) (None, 22139, 256)    32768       res_14_gated_activation_3_s1[0][0
____________________________________________________________________________________________________
res_14_data_slice_3_d8_s1 (Slice (None, 22139, 128)    0           convolution1d_14[0][0]           
____________________________________________________________________________________________________
res_15_dense_condition_4_s1 (Den (None, 256)           1280        condition_input[0][0]            
____________________________________________________________________________________________________
merge_14 (Merge)                 (None, 22139, 128)    0           merge_13[0][0]                   
                                                                   res_14_data_slice_3_d8_s1[0][0]  
____________________________________________________________________________________________________
res_15_condition_reshape_d16_s1  (None, 128, 2)        0           res_15_dense_condition_4_s1[0][0]
____________________________________________________________________________________________________
res_15_dilated_conv_d16_s1 (Atro (None, 22139, 256)    98304       merge_14[0][0]                   
____________________________________________________________________________________________________
res_15_condition_slice_1_d16_s1  (None, 128)           0           res_15_condition_reshape_d16_s1[0
____________________________________________________________________________________________________
res_15_condition_slice_2_d16_s1  (None, 128)           0           res_15_condition_reshape_d16_s1[0
____________________________________________________________________________________________________
res_30_data_slice_1_d16_s1 (Slic (None, 22139, 128)    0           res_15_dilated_conv_d16_s1[0][0] 
____________________________________________________________________________________________________
res_15_condition_repeat_1_d16_s1 (None, 22139, 128)    0           res_15_condition_slice_1_d16_s1[0
____________________________________________________________________________________________________
res_30_data_slice_2_d16_s1 (Slic (None, 22139, 128)    0           res_15_dilated_conv_d16_s1[0][0] 
____________________________________________________________________________________________________
res_15_condition_repeat_2_d16_s1 (None, 22139, 128)    0           res_15_condition_slice_2_d16_s1[0
____________________________________________________________________________________________________
res_15_merge_1_d16_s1 (Merge)    (None, 22139, 128)    0           res_30_data_slice_1_d16_s1[0][0] 
                                                                   res_15_condition_repeat_1_d16_s1[
____________________________________________________________________________________________________
res_15_merge_2_d16_s1 (Merge)    (None, 22139, 128)    0           res_30_data_slice_2_d16_s1[0][0] 
                                                                   res_15_condition_repeat_2_d16_s1[
____________________________________________________________________________________________________
activation_30 (Activation)       (None, 22139, 128)    0           res_15_merge_1_d16_s1[0][0]      
____________________________________________________________________________________________________
activation_31 (Activation)       (None, 22139, 128)    0           res_15_merge_2_d16_s1[0][0]      
____________________________________________________________________________________________________
res_15_gated_activation_4_s1 (Me (None, 22139, 128)    0           activation_30[0][0]              
                                                                   activation_31[0][0]              
____________________________________________________________________________________________________
convolution1d_15 (Convolution1D) (None, 22139, 256)    32768       res_15_gated_activation_4_s1[0][0
____________________________________________________________________________________________________
res_15_data_slice_3_d16_s1 (Slic (None, 22139, 128)    0           convolution1d_15[0][0]           
____________________________________________________________________________________________________
res_16_dense_condition_5_s1 (Den (None, 256)           1280        condition_input[0][0]            
____________________________________________________________________________________________________
merge_15 (Merge)                 (None, 22139, 128)    0           merge_14[0][0]                   
                                                                   res_15_data_slice_3_d16_s1[0][0] 
____________________________________________________________________________________________________
res_16_condition_reshape_d32_s1  (None, 128, 2)        0           res_16_dense_condition_5_s1[0][0]
____________________________________________________________________________________________________
res_16_dilated_conv_d32_s1 (Atro (None, 22139, 256)    98304       merge_15[0][0]                   
____________________________________________________________________________________________________
res_16_condition_slice_1_d32_s1  (None, 128)           0           res_16_condition_reshape_d32_s1[0
____________________________________________________________________________________________________
res_16_condition_slice_2_d32_s1  (None, 128)           0           res_16_condition_reshape_d32_s1[0
____________________________________________________________________________________________________
res_30_data_slice_1_d32_s1 (Slic (None, 22139, 128)    0           res_16_dilated_conv_d32_s1[0][0] 
____________________________________________________________________________________________________
res_16_condition_repeat_1_d32_s1 (None, 22139, 128)    0           res_16_condition_slice_1_d32_s1[0
____________________________________________________________________________________________________
res_30_data_slice_2_d32_s1 (Slic (None, 22139, 128)    0           res_16_dilated_conv_d32_s1[0][0] 
____________________________________________________________________________________________________
res_16_condition_repeat_2_d32_s1 (None, 22139, 128)    0           res_16_condition_slice_2_d32_s1[0
____________________________________________________________________________________________________
res_16_merge_1_d32_s1 (Merge)    (None, 22139, 128)    0           res_30_data_slice_1_d32_s1[0][0] 
                                                                   res_16_condition_repeat_1_d32_s1[
____________________________________________________________________________________________________
res_16_merge_2_d32_s1 (Merge)    (None, 22139, 128)    0           res_30_data_slice_2_d32_s1[0][0] 
                                                                   res_16_condition_repeat_2_d32_s1[
____________________________________________________________________________________________________
activation_32 (Activation)       (None, 22139, 128)    0           res_16_merge_1_d32_s1[0][0]      
____________________________________________________________________________________________________
activation_33 (Activation)       (None, 22139, 128)    0           res_16_merge_2_d32_s1[0][0]      
____________________________________________________________________________________________________
res_16_gated_activation_5_s1 (Me (None, 22139, 128)    0           activation_32[0][0]              
                                                                   activation_33[0][0]              
____________________________________________________________________________________________________
convolution1d_16 (Convolution1D) (None, 22139, 256)    32768       res_16_gated_activation_5_s1[0][0
____________________________________________________________________________________________________
res_16_data_slice_3_d32_s1 (Slic (None, 22139, 128)    0           convolution1d_16[0][0]           
____________________________________________________________________________________________________
res_17_dense_condition_6_s1 (Den (None, 256)           1280        condition_input[0][0]            
____________________________________________________________________________________________________
merge_16 (Merge)                 (None, 22139, 128)    0           merge_15[0][0]                   
                                                                   res_16_data_slice_3_d32_s1[0][0] 
____________________________________________________________________________________________________
res_17_condition_reshape_d64_s1  (None, 128, 2)        0           res_17_dense_condition_6_s1[0][0]
____________________________________________________________________________________________________
res_17_dilated_conv_d64_s1 (Atro (None, 22139, 256)    98304       merge_16[0][0]                   
____________________________________________________________________________________________________
res_17_condition_slice_1_d64_s1  (None, 128)           0           res_17_condition_reshape_d64_s1[0
____________________________________________________________________________________________________
res_17_condition_slice_2_d64_s1  (None, 128)           0           res_17_condition_reshape_d64_s1[0
____________________________________________________________________________________________________
res_30_data_slice_1_d64_s1 (Slic (None, 22139, 128)    0           res_17_dilated_conv_d64_s1[0][0] 
____________________________________________________________________________________________________
res_17_condition_repeat_1_d64_s1 (None, 22139, 128)    0           res_17_condition_slice_1_d64_s1[0
____________________________________________________________________________________________________
res_30_data_slice_2_d64_s1 (Slic (None, 22139, 128)    0           res_17_dilated_conv_d64_s1[0][0] 
____________________________________________________________________________________________________
res_17_condition_repeat_2_d64_s1 (None, 22139, 128)    0           res_17_condition_slice_2_d64_s1[0
____________________________________________________________________________________________________
res_17_merge_1_d64_s1 (Merge)    (None, 22139, 128)    0           res_30_data_slice_1_d64_s1[0][0] 
                                                                   res_17_condition_repeat_1_d64_s1[
____________________________________________________________________________________________________
res_17_merge_2_d64_s1 (Merge)    (None, 22139, 128)    0           res_30_data_slice_2_d64_s1[0][0] 
                                                                   res_17_condition_repeat_2_d64_s1[
____________________________________________________________________________________________________
activation_34 (Activation)       (None, 22139, 128)    0           res_17_merge_1_d64_s1[0][0]      
____________________________________________________________________________________________________
activation_35 (Activation)       (None, 22139, 128)    0           res_17_merge_2_d64_s1[0][0]      
____________________________________________________________________________________________________
res_17_gated_activation_6_s1 (Me (None, 22139, 128)    0           activation_34[0][0]              
                                                                   activation_35[0][0]              
____________________________________________________________________________________________________
convolution1d_17 (Convolution1D) (None, 22139, 256)    32768       res_17_gated_activation_6_s1[0][0
____________________________________________________________________________________________________
res_17_data_slice_3_d64_s1 (Slic (None, 22139, 128)    0           convolution1d_17[0][0]           
____________________________________________________________________________________________________
res_18_dense_condition_7_s1 (Den (None, 256)           1280        condition_input[0][0]            
____________________________________________________________________________________________________
merge_17 (Merge)                 (None, 22139, 128)    0           merge_16[0][0]                   
                                                                   res_17_data_slice_3_d64_s1[0][0] 
____________________________________________________________________________________________________
res_18_condition_reshape_d128_s1 (None, 128, 2)        0           res_18_dense_condition_7_s1[0][0]
____________________________________________________________________________________________________
res_18_dilated_conv_d128_s1 (Atr (None, 22139, 256)    98304       merge_17[0][0]                   
____________________________________________________________________________________________________
res_18_condition_slice_1_d128_s1 (None, 128)           0           res_18_condition_reshape_d128_s1[
____________________________________________________________________________________________________
res_18_condition_slice_2_d128_s1 (None, 128)           0           res_18_condition_reshape_d128_s1[
____________________________________________________________________________________________________
res_30_data_slice_1_d128_s1 (Sli (None, 22139, 128)    0           res_18_dilated_conv_d128_s1[0][0]
____________________________________________________________________________________________________
res_18_condition_repeat_1_d128_s (None, 22139, 128)    0           res_18_condition_slice_1_d128_s1[
____________________________________________________________________________________________________
res_30_data_slice_2_d128_s1 (Sli (None, 22139, 128)    0           res_18_dilated_conv_d128_s1[0][0]
____________________________________________________________________________________________________
res_18_condition_repeat_2_d128_s (None, 22139, 128)    0           res_18_condition_slice_2_d128_s1[
____________________________________________________________________________________________________
res_18_merge_1_d128_s1 (Merge)   (None, 22139, 128)    0           res_30_data_slice_1_d128_s1[0][0]
                                                                   res_18_condition_repeat_1_d128_s1
____________________________________________________________________________________________________
res_18_merge_2_d128_s1 (Merge)   (None, 22139, 128)    0           res_30_data_slice_2_d128_s1[0][0]
                                                                   res_18_condition_repeat_2_d128_s1
____________________________________________________________________________________________________
activation_36 (Activation)       (None, 22139, 128)    0           res_18_merge_1_d128_s1[0][0]     
____________________________________________________________________________________________________
activation_37 (Activation)       (None, 22139, 128)    0           res_18_merge_2_d128_s1[0][0]     
____________________________________________________________________________________________________
res_18_gated_activation_7_s1 (Me (None, 22139, 128)    0           activation_36[0][0]              
                                                                   activation_37[0][0]              
____________________________________________________________________________________________________
convolution1d_18 (Convolution1D) (None, 22139, 256)    32768       res_18_gated_activation_7_s1[0][0
____________________________________________________________________________________________________
res_18_data_slice_3_d128_s1 (Sli (None, 22139, 128)    0           convolution1d_18[0][0]           
____________________________________________________________________________________________________
res_19_dense_condition_8_s1 (Den (None, 256)           1280        condition_input[0][0]            
____________________________________________________________________________________________________
merge_18 (Merge)                 (None, 22139, 128)    0           merge_17[0][0]                   
                                                                   res_18_data_slice_3_d128_s1[0][0]
____________________________________________________________________________________________________
res_19_condition_reshape_d256_s1 (None, 128, 2)        0           res_19_dense_condition_8_s1[0][0]
____________________________________________________________________________________________________
res_19_dilated_conv_d256_s1 (Atr (None, 22139, 256)    98304       merge_18[0][0]                   
____________________________________________________________________________________________________
res_19_condition_slice_1_d256_s1 (None, 128)           0           res_19_condition_reshape_d256_s1[
____________________________________________________________________________________________________
res_19_condition_slice_2_d256_s1 (None, 128)           0           res_19_condition_reshape_d256_s1[
____________________________________________________________________________________________________
res_30_data_slice_1_d256_s1 (Sli (None, 22139, 128)    0           res_19_dilated_conv_d256_s1[0][0]
____________________________________________________________________________________________________
res_19_condition_repeat_1_d256_s (None, 22139, 128)    0           res_19_condition_slice_1_d256_s1[
____________________________________________________________________________________________________
res_30_data_slice_2_d256_s1 (Sli (None, 22139, 128)    0           res_19_dilated_conv_d256_s1[0][0]
____________________________________________________________________________________________________
res_19_condition_repeat_2_d256_s (None, 22139, 128)    0           res_19_condition_slice_2_d256_s1[
____________________________________________________________________________________________________
res_19_merge_1_d256_s1 (Merge)   (None, 22139, 128)    0           res_30_data_slice_1_d256_s1[0][0]
                                                                   res_19_condition_repeat_1_d256_s1
____________________________________________________________________________________________________
res_19_merge_2_d256_s1 (Merge)   (None, 22139, 128)    0           res_30_data_slice_2_d256_s1[0][0]
                                                                   res_19_condition_repeat_2_d256_s1
____________________________________________________________________________________________________
activation_38 (Activation)       (None, 22139, 128)    0           res_19_merge_1_d256_s1[0][0]     
____________________________________________________________________________________________________
activation_39 (Activation)       (None, 22139, 128)    0           res_19_merge_2_d256_s1[0][0]     
____________________________________________________________________________________________________
res_19_gated_activation_8_s1 (Me (None, 22139, 128)    0           activation_38[0][0]              
                                                                   activation_39[0][0]              
____________________________________________________________________________________________________
convolution1d_19 (Convolution1D) (None, 22139, 256)    32768       res_19_gated_activation_8_s1[0][0
____________________________________________________________________________________________________
res_19_data_slice_3_d256_s1 (Sli (None, 22139, 128)    0           convolution1d_19[0][0]           
____________________________________________________________________________________________________
res_20_dense_condition_9_s1 (Den (None, 256)           1280        condition_input[0][0]            
____________________________________________________________________________________________________
merge_19 (Merge)                 (None, 22139, 128)    0           merge_18[0][0]                   
                                                                   res_19_data_slice_3_d256_s1[0][0]
____________________________________________________________________________________________________
res_20_condition_reshape_d512_s1 (None, 128, 2)        0           res_20_dense_condition_9_s1[0][0]
____________________________________________________________________________________________________
res_20_dilated_conv_d512_s1 (Atr (None, 22139, 256)    98304       merge_19[0][0]                   
____________________________________________________________________________________________________
res_20_condition_slice_1_d512_s1 (None, 128)           0           res_20_condition_reshape_d512_s1[
____________________________________________________________________________________________________
res_20_condition_slice_2_d512_s1 (None, 128)           0           res_20_condition_reshape_d512_s1[
____________________________________________________________________________________________________
res_30_data_slice_1_d512_s1 (Sli (None, 22139, 128)    0           res_20_dilated_conv_d512_s1[0][0]
____________________________________________________________________________________________________
res_20_condition_repeat_1_d512_s (None, 22139, 128)    0           res_20_condition_slice_1_d512_s1[
____________________________________________________________________________________________________
res_30_data_slice_2_d512_s1 (Sli (None, 22139, 128)    0           res_20_dilated_conv_d512_s1[0][0]
____________________________________________________________________________________________________
res_20_condition_repeat_2_d512_s (None, 22139, 128)    0           res_20_condition_slice_2_d512_s1[
____________________________________________________________________________________________________
res_20_merge_1_d512_s1 (Merge)   (None, 22139, 128)    0           res_30_data_slice_1_d512_s1[0][0]
                                                                   res_20_condition_repeat_1_d512_s1
____________________________________________________________________________________________________
res_20_merge_2_d512_s1 (Merge)   (None, 22139, 128)    0           res_30_data_slice_2_d512_s1[0][0]
                                                                   res_20_condition_repeat_2_d512_s1
____________________________________________________________________________________________________
activation_40 (Activation)       (None, 22139, 128)    0           res_20_merge_1_d512_s1[0][0]     
____________________________________________________________________________________________________
activation_41 (Activation)       (None, 22139, 128)    0           res_20_merge_2_d512_s1[0][0]     
____________________________________________________________________________________________________
res_20_gated_activation_9_s1 (Me (None, 22139, 128)    0           activation_40[0][0]              
                                                                   activation_41[0][0]              
____________________________________________________________________________________________________
convolution1d_20 (Convolution1D) (None, 22139, 256)    32768       res_20_gated_activation_9_s1[0][0
____________________________________________________________________________________________________
res_20_data_slice_3_d512_s1 (Sli (None, 22139, 128)    0           convolution1d_20[0][0]           
____________________________________________________________________________________________________
res_21_dense_condition_0_s2 (Den (None, 256)           1280        condition_input[0][0]            
____________________________________________________________________________________________________
merge_20 (Merge)                 (None, 22139, 128)    0           merge_19[0][0]                   
                                                                   res_20_data_slice_3_d512_s1[0][0]
____________________________________________________________________________________________________
res_21_condition_reshape_d1_s2 ( (None, 128, 2)        0           res_21_dense_condition_0_s2[0][0]
____________________________________________________________________________________________________
res_21_dilated_conv_d1_s2 (Atrou (None, 22139, 256)    98304       merge_20[0][0]                   
____________________________________________________________________________________________________
res_21_condition_slice_1_d1_s2 ( (None, 128)           0           res_21_condition_reshape_d1_s2[0]
____________________________________________________________________________________________________
res_21_condition_slice_2_d1_s2 ( (None, 128)           0           res_21_condition_reshape_d1_s2[0]
____________________________________________________________________________________________________
res_30_data_slice_1_d1_s2 (Slice (None, 22139, 128)    0           res_21_dilated_conv_d1_s2[0][0]  
____________________________________________________________________________________________________
res_21_condition_repeat_1_d1_s2  (None, 22139, 128)    0           res_21_condition_slice_1_d1_s2[0]
____________________________________________________________________________________________________
res_30_data_slice_2_d1_s2 (Slice (None, 22139, 128)    0           res_21_dilated_conv_d1_s2[0][0]  
____________________________________________________________________________________________________
res_21_condition_repeat_2_d1_s2  (None, 22139, 128)    0           res_21_condition_slice_2_d1_s2[0]
____________________________________________________________________________________________________
res_21_merge_1_d1_s2 (Merge)     (None, 22139, 128)    0           res_30_data_slice_1_d1_s2[0][0]  
                                                                   res_21_condition_repeat_1_d1_s2[0
____________________________________________________________________________________________________
res_21_merge_2_d1_s2 (Merge)     (None, 22139, 128)    0           res_30_data_slice_2_d1_s2[0][0]  
                                                                   res_21_condition_repeat_2_d1_s2[0
____________________________________________________________________________________________________
activation_42 (Activation)       (None, 22139, 128)    0           res_21_merge_1_d1_s2[0][0]       
____________________________________________________________________________________________________
activation_43 (Activation)       (None, 22139, 128)    0           res_21_merge_2_d1_s2[0][0]       
____________________________________________________________________________________________________
res_21_gated_activation_0_s2 (Me (None, 22139, 128)    0           activation_42[0][0]              
                                                                   activation_43[0][0]              
____________________________________________________________________________________________________
convolution1d_21 (Convolution1D) (None, 22139, 256)    32768       res_21_gated_activation_0_s2[0][0
____________________________________________________________________________________________________
res_21_data_slice_3_d1_s2 (Slice (None, 22139, 128)    0           convolution1d_21[0][0]           
____________________________________________________________________________________________________
res_22_dense_condition_1_s2 (Den (None, 256)           1280        condition_input[0][0]            
____________________________________________________________________________________________________
merge_21 (Merge)                 (None, 22139, 128)    0           merge_20[0][0]                   
                                                                   res_21_data_slice_3_d1_s2[0][0]  
____________________________________________________________________________________________________
res_22_condition_reshape_d2_s2 ( (None, 128, 2)        0           res_22_dense_condition_1_s2[0][0]
____________________________________________________________________________________________________
res_22_dilated_conv_d2_s2 (Atrou (None, 22139, 256)    98304       merge_21[0][0]                   
____________________________________________________________________________________________________
res_22_condition_slice_1_d2_s2 ( (None, 128)           0           res_22_condition_reshape_d2_s2[0]
____________________________________________________________________________________________________
res_22_condition_slice_2_d2_s2 ( (None, 128)           0           res_22_condition_reshape_d2_s2[0]
____________________________________________________________________________________________________
res_30_data_slice_1_d2_s2 (Slice (None, 22139, 128)    0           res_22_dilated_conv_d2_s2[0][0]  
____________________________________________________________________________________________________
res_22_condition_repeat_1_d2_s2  (None, 22139, 128)    0           res_22_condition_slice_1_d2_s2[0]
____________________________________________________________________________________________________
res_30_data_slice_2_d2_s2 (Slice (None, 22139, 128)    0           res_22_dilated_conv_d2_s2[0][0]  
____________________________________________________________________________________________________
res_22_condition_repeat_2_d2_s2  (None, 22139, 128)    0           res_22_condition_slice_2_d2_s2[0]
____________________________________________________________________________________________________
res_22_merge_1_d2_s2 (Merge)     (None, 22139, 128)    0           res_30_data_slice_1_d2_s2[0][0]  
                                                                   res_22_condition_repeat_1_d2_s2[0
____________________________________________________________________________________________________
res_22_merge_2_d2_s2 (Merge)     (None, 22139, 128)    0           res_30_data_slice_2_d2_s2[0][0]  
                                                                   res_22_condition_repeat_2_d2_s2[0
____________________________________________________________________________________________________
activation_44 (Activation)       (None, 22139, 128)    0           res_22_merge_1_d2_s2[0][0]       
____________________________________________________________________________________________________
activation_45 (Activation)       (None, 22139, 128)    0           res_22_merge_2_d2_s2[0][0]       
____________________________________________________________________________________________________
res_22_gated_activation_1_s2 (Me (None, 22139, 128)    0           activation_44[0][0]              
                                                                   activation_45[0][0]              
____________________________________________________________________________________________________
convolution1d_22 (Convolution1D) (None, 22139, 256)    32768       res_22_gated_activation_1_s2[0][0
____________________________________________________________________________________________________
res_22_data_slice_3_d2_s2 (Slice (None, 22139, 128)    0           convolution1d_22[0][0]           
____________________________________________________________________________________________________
res_23_dense_condition_2_s2 (Den (None, 256)           1280        condition_input[0][0]            
____________________________________________________________________________________________________
merge_22 (Merge)                 (None, 22139, 128)    0           merge_21[0][0]                   
                                                                   res_22_data_slice_3_d2_s2[0][0]  
____________________________________________________________________________________________________
res_23_condition_reshape_d4_s2 ( (None, 128, 2)        0           res_23_dense_condition_2_s2[0][0]
____________________________________________________________________________________________________
res_23_dilated_conv_d4_s2 (Atrou (None, 22139, 256)    98304       merge_22[0][0]                   
____________________________________________________________________________________________________
res_23_condition_slice_1_d4_s2 ( (None, 128)           0           res_23_condition_reshape_d4_s2[0]
____________________________________________________________________________________________________
res_23_condition_slice_2_d4_s2 ( (None, 128)           0           res_23_condition_reshape_d4_s2[0]
____________________________________________________________________________________________________
res_30_data_slice_1_d4_s2 (Slice (None, 22139, 128)    0           res_23_dilated_conv_d4_s2[0][0]  
____________________________________________________________________________________________________
res_23_condition_repeat_1_d4_s2  (None, 22139, 128)    0           res_23_condition_slice_1_d4_s2[0]
____________________________________________________________________________________________________
res_30_data_slice_2_d4_s2 (Slice (None, 22139, 128)    0           res_23_dilated_conv_d4_s2[0][0]  
____________________________________________________________________________________________________
res_23_condition_repeat_2_d4_s2  (None, 22139, 128)    0           res_23_condition_slice_2_d4_s2[0]
____________________________________________________________________________________________________
res_23_merge_1_d4_s2 (Merge)     (None, 22139, 128)    0           res_30_data_slice_1_d4_s2[0][0]  
                                                                   res_23_condition_repeat_1_d4_s2[0
____________________________________________________________________________________________________
res_23_merge_2_d4_s2 (Merge)     (None, 22139, 128)    0           res_30_data_slice_2_d4_s2[0][0]  
                                                                   res_23_condition_repeat_2_d4_s2[0
____________________________________________________________________________________________________
activation_46 (Activation)       (None, 22139, 128)    0           res_23_merge_1_d4_s2[0][0]       
____________________________________________________________________________________________________
activation_47 (Activation)       (None, 22139, 128)    0           res_23_merge_2_d4_s2[0][0]       
____________________________________________________________________________________________________
res_23_gated_activation_2_s2 (Me (None, 22139, 128)    0           activation_46[0][0]              
                                                                   activation_47[0][0]              
____________________________________________________________________________________________________
convolution1d_23 (Convolution1D) (None, 22139, 256)    32768       res_23_gated_activation_2_s2[0][0
____________________________________________________________________________________________________
res_23_data_slice_3_d4_s2 (Slice (None, 22139, 128)    0           convolution1d_23[0][0]           
____________________________________________________________________________________________________
res_24_dense_condition_3_s2 (Den (None, 256)           1280        condition_input[0][0]            
____________________________________________________________________________________________________
merge_23 (Merge)                 (None, 22139, 128)    0           merge_22[0][0]                   
                                                                   res_23_data_slice_3_d4_s2[0][0]  
____________________________________________________________________________________________________
res_24_condition_reshape_d8_s2 ( (None, 128, 2)        0           res_24_dense_condition_3_s2[0][0]
____________________________________________________________________________________________________
res_24_dilated_conv_d8_s2 (Atrou (None, 22139, 256)    98304       merge_23[0][0]                   
____________________________________________________________________________________________________
res_24_condition_slice_1_d8_s2 ( (None, 128)           0           res_24_condition_reshape_d8_s2[0]
____________________________________________________________________________________________________
res_24_condition_slice_2_d8_s2 ( (None, 128)           0           res_24_condition_reshape_d8_s2[0]
____________________________________________________________________________________________________
res_30_data_slice_1_d8_s2 (Slice (None, 22139, 128)    0           res_24_dilated_conv_d8_s2[0][0]  
____________________________________________________________________________________________________
res_24_condition_repeat_1_d8_s2  (None, 22139, 128)    0           res_24_condition_slice_1_d8_s2[0]
____________________________________________________________________________________________________
res_30_data_slice_2_d8_s2 (Slice (None, 22139, 128)    0           res_24_dilated_conv_d8_s2[0][0]  
____________________________________________________________________________________________________
res_24_condition_repeat_2_d8_s2  (None, 22139, 128)    0           res_24_condition_slice_2_d8_s2[0]
____________________________________________________________________________________________________
res_24_merge_1_d8_s2 (Merge)     (None, 22139, 128)    0           res_30_data_slice_1_d8_s2[0][0]  
                                                                   res_24_condition_repeat_1_d8_s2[0
____________________________________________________________________________________________________
res_24_merge_2_d8_s2 (Merge)     (None, 22139, 128)    0           res_30_data_slice_2_d8_s2[0][0]  
                                                                   res_24_condition_repeat_2_d8_s2[0
____________________________________________________________________________________________________
activation_48 (Activation)       (None, 22139, 128)    0           res_24_merge_1_d8_s2[0][0]       
____________________________________________________________________________________________________
activation_49 (Activation)       (None, 22139, 128)    0           res_24_merge_2_d8_s2[0][0]       
____________________________________________________________________________________________________
res_24_gated_activation_3_s2 (Me (None, 22139, 128)    0           activation_48[0][0]              
                                                                   activation_49[0][0]              
____________________________________________________________________________________________________
convolution1d_24 (Convolution1D) (None, 22139, 256)    32768       res_24_gated_activation_3_s2[0][0
____________________________________________________________________________________________________
res_24_data_slice_3_d8_s2 (Slice (None, 22139, 128)    0           convolution1d_24[0][0]           
____________________________________________________________________________________________________
res_25_dense_condition_4_s2 (Den (None, 256)           1280        condition_input[0][0]            
____________________________________________________________________________________________________
merge_24 (Merge)                 (None, 22139, 128)    0           merge_23[0][0]                   
                                                                   res_24_data_slice_3_d8_s2[0][0]  
____________________________________________________________________________________________________
res_25_condition_reshape_d16_s2  (None, 128, 2)        0           res_25_dense_condition_4_s2[0][0]
____________________________________________________________________________________________________
res_25_dilated_conv_d16_s2 (Atro (None, 22139, 256)    98304       merge_24[0][0]                   
____________________________________________________________________________________________________
res_25_condition_slice_1_d16_s2  (None, 128)           0           res_25_condition_reshape_d16_s2[0
____________________________________________________________________________________________________
res_25_condition_slice_2_d16_s2  (None, 128)           0           res_25_condition_reshape_d16_s2[0
____________________________________________________________________________________________________
res_30_data_slice_1_d16_s2 (Slic (None, 22139, 128)    0           res_25_dilated_conv_d16_s2[0][0] 
____________________________________________________________________________________________________
res_25_condition_repeat_1_d16_s2 (None, 22139, 128)    0           res_25_condition_slice_1_d16_s2[0
____________________________________________________________________________________________________
res_30_data_slice_2_d16_s2 (Slic (None, 22139, 128)    0           res_25_dilated_conv_d16_s2[0][0] 
____________________________________________________________________________________________________
res_25_condition_repeat_2_d16_s2 (None, 22139, 128)    0           res_25_condition_slice_2_d16_s2[0
____________________________________________________________________________________________________
res_25_merge_1_d16_s2 (Merge)    (None, 22139, 128)    0           res_30_data_slice_1_d16_s2[0][0] 
                                                                   res_25_condition_repeat_1_d16_s2[
____________________________________________________________________________________________________
res_25_merge_2_d16_s2 (Merge)    (None, 22139, 128)    0           res_30_data_slice_2_d16_s2[0][0] 
                                                                   res_25_condition_repeat_2_d16_s2[
____________________________________________________________________________________________________
activation_50 (Activation)       (None, 22139, 128)    0           res_25_merge_1_d16_s2[0][0]      
____________________________________________________________________________________________________
activation_51 (Activation)       (None, 22139, 128)    0           res_25_merge_2_d16_s2[0][0]      
____________________________________________________________________________________________________
res_25_gated_activation_4_s2 (Me (None, 22139, 128)    0           activation_50[0][0]              
                                                                   activation_51[0][0]              
____________________________________________________________________________________________________
convolution1d_25 (Convolution1D) (None, 22139, 256)    32768       res_25_gated_activation_4_s2[0][0
____________________________________________________________________________________________________
res_25_data_slice_3_d16_s2 (Slic (None, 22139, 128)    0           convolution1d_25[0][0]           
____________________________________________________________________________________________________
res_26_dense_condition_5_s2 (Den (None, 256)           1280        condition_input[0][0]            
____________________________________________________________________________________________________
merge_25 (Merge)                 (None, 22139, 128)    0           merge_24[0][0]                   
                                                                   res_25_data_slice_3_d16_s2[0][0] 
____________________________________________________________________________________________________
res_26_condition_reshape_d32_s2  (None, 128, 2)        0           res_26_dense_condition_5_s2[0][0]
____________________________________________________________________________________________________
res_26_dilated_conv_d32_s2 (Atro (None, 22139, 256)    98304       merge_25[0][0]                   
____________________________________________________________________________________________________
res_26_condition_slice_1_d32_s2  (None, 128)           0           res_26_condition_reshape_d32_s2[0
____________________________________________________________________________________________________
res_26_condition_slice_2_d32_s2  (None, 128)           0           res_26_condition_reshape_d32_s2[0
____________________________________________________________________________________________________
res_30_data_slice_1_d32_s2 (Slic (None, 22139, 128)    0           res_26_dilated_conv_d32_s2[0][0] 
____________________________________________________________________________________________________
res_26_condition_repeat_1_d32_s2 (None, 22139, 128)    0           res_26_condition_slice_1_d32_s2[0
____________________________________________________________________________________________________
res_30_data_slice_2_d32_s2 (Slic (None, 22139, 128)    0           res_26_dilated_conv_d32_s2[0][0] 
____________________________________________________________________________________________________
res_26_condition_repeat_2_d32_s2 (None, 22139, 128)    0           res_26_condition_slice_2_d32_s2[0
____________________________________________________________________________________________________
res_26_merge_1_d32_s2 (Merge)    (None, 22139, 128)    0           res_30_data_slice_1_d32_s2[0][0] 
                                                                   res_26_condition_repeat_1_d32_s2[
____________________________________________________________________________________________________
res_26_merge_2_d32_s2 (Merge)    (None, 22139, 128)    0           res_30_data_slice_2_d32_s2[0][0] 
                                                                   res_26_condition_repeat_2_d32_s2[
____________________________________________________________________________________________________
activation_52 (Activation)       (None, 22139, 128)    0           res_26_merge_1_d32_s2[0][0]      
____________________________________________________________________________________________________
activation_53 (Activation)       (None, 22139, 128)    0           res_26_merge_2_d32_s2[0][0]      
____________________________________________________________________________________________________
res_26_gated_activation_5_s2 (Me (None, 22139, 128)    0           activation_52[0][0]              
                                                                   activation_53[0][0]              
____________________________________________________________________________________________________
convolution1d_26 (Convolution1D) (None, 22139, 256)    32768       res_26_gated_activation_5_s2[0][0
____________________________________________________________________________________________________
res_26_data_slice_3_d32_s2 (Slic (None, 22139, 128)    0           convolution1d_26[0][0]           
____________________________________________________________________________________________________
res_27_dense_condition_6_s2 (Den (None, 256)           1280        condition_input[0][0]            
____________________________________________________________________________________________________
merge_26 (Merge)                 (None, 22139, 128)    0           merge_25[0][0]                   
                                                                   res_26_data_slice_3_d32_s2[0][0] 
____________________________________________________________________________________________________
res_27_condition_reshape_d64_s2  (None, 128, 2)        0           res_27_dense_condition_6_s2[0][0]
____________________________________________________________________________________________________
res_27_dilated_conv_d64_s2 (Atro (None, 22139, 256)    98304       merge_26[0][0]                   
____________________________________________________________________________________________________
res_27_condition_slice_1_d64_s2  (None, 128)           0           res_27_condition_reshape_d64_s2[0
____________________________________________________________________________________________________
res_27_condition_slice_2_d64_s2  (None, 128)           0           res_27_condition_reshape_d64_s2[0
____________________________________________________________________________________________________
res_30_data_slice_1_d64_s2 (Slic (None, 22139, 128)    0           res_27_dilated_conv_d64_s2[0][0] 
____________________________________________________________________________________________________
res_27_condition_repeat_1_d64_s2 (None, 22139, 128)    0           res_27_condition_slice_1_d64_s2[0
____________________________________________________________________________________________________
res_30_data_slice_2_d64_s2 (Slic (None, 22139, 128)    0           res_27_dilated_conv_d64_s2[0][0] 
____________________________________________________________________________________________________
res_27_condition_repeat_2_d64_s2 (None, 22139, 128)    0           res_27_condition_slice_2_d64_s2[0
____________________________________________________________________________________________________
res_27_merge_1_d64_s2 (Merge)    (None, 22139, 128)    0           res_30_data_slice_1_d64_s2[0][0] 
                                                                   res_27_condition_repeat_1_d64_s2[
____________________________________________________________________________________________________
res_27_merge_2_d64_s2 (Merge)    (None, 22139, 128)    0           res_30_data_slice_2_d64_s2[0][0] 
                                                                   res_27_condition_repeat_2_d64_s2[
____________________________________________________________________________________________________
activation_54 (Activation)       (None, 22139, 128)    0           res_27_merge_1_d64_s2[0][0]      
____________________________________________________________________________________________________
activation_55 (Activation)       (None, 22139, 128)    0           res_27_merge_2_d64_s2[0][0]      
____________________________________________________________________________________________________
res_27_gated_activation_6_s2 (Me (None, 22139, 128)    0           activation_54[0][0]              
                                                                   activation_55[0][0]              
____________________________________________________________________________________________________
convolution1d_27 (Convolution1D) (None, 22139, 256)    32768       res_27_gated_activation_6_s2[0][0
____________________________________________________________________________________________________
res_27_data_slice_3_d64_s2 (Slic (None, 22139, 128)    0           convolution1d_27[0][0]           
____________________________________________________________________________________________________
res_28_dense_condition_7_s2 (Den (None, 256)           1280        condition_input[0][0]            
____________________________________________________________________________________________________
merge_27 (Merge)                 (None, 22139, 128)    0           merge_26[0][0]                   
                                                                   res_27_data_slice_3_d64_s2[0][0] 
____________________________________________________________________________________________________
res_28_condition_reshape_d128_s2 (None, 128, 2)        0           res_28_dense_condition_7_s2[0][0]
____________________________________________________________________________________________________
res_28_dilated_conv_d128_s2 (Atr (None, 22139, 256)    98304       merge_27[0][0]                   
____________________________________________________________________________________________________
res_28_condition_slice_1_d128_s2 (None, 128)           0           res_28_condition_reshape_d128_s2[
____________________________________________________________________________________________________
res_28_condition_slice_2_d128_s2 (None, 128)           0           res_28_condition_reshape_d128_s2[
____________________________________________________________________________________________________
res_30_data_slice_1_d128_s2 (Sli (None, 22139, 128)    0           res_28_dilated_conv_d128_s2[0][0]
____________________________________________________________________________________________________
res_28_condition_repeat_1_d128_s (None, 22139, 128)    0           res_28_condition_slice_1_d128_s2[
____________________________________________________________________________________________________
res_30_data_slice_2_d128_s2 (Sli (None, 22139, 128)    0           res_28_dilated_conv_d128_s2[0][0]
____________________________________________________________________________________________________
res_28_condition_repeat_2_d128_s (None, 22139, 128)    0           res_28_condition_slice_2_d128_s2[
____________________________________________________________________________________________________
res_28_merge_1_d128_s2 (Merge)   (None, 22139, 128)    0           res_30_data_slice_1_d128_s2[0][0]
                                                                   res_28_condition_repeat_1_d128_s2
____________________________________________________________________________________________________
res_28_merge_2_d128_s2 (Merge)   (None, 22139, 128)    0           res_30_data_slice_2_d128_s2[0][0]
                                                                   res_28_condition_repeat_2_d128_s2
____________________________________________________________________________________________________
activation_56 (Activation)       (None, 22139, 128)    0           res_28_merge_1_d128_s2[0][0]     
____________________________________________________________________________________________________
activation_57 (Activation)       (None, 22139, 128)    0           res_28_merge_2_d128_s2[0][0]     
____________________________________________________________________________________________________
res_28_gated_activation_7_s2 (Me (None, 22139, 128)    0           activation_56[0][0]              
                                                                   activation_57[0][0]              
____________________________________________________________________________________________________
convolution1d_28 (Convolution1D) (None, 22139, 256)    32768       res_28_gated_activation_7_s2[0][0
____________________________________________________________________________________________________
res_28_data_slice_3_d128_s2 (Sli (None, 22139, 128)    0           convolution1d_28[0][0]           
____________________________________________________________________________________________________
res_29_dense_condition_8_s2 (Den (None, 256)           1280        condition_input[0][0]            
____________________________________________________________________________________________________
merge_28 (Merge)                 (None, 22139, 128)    0           merge_27[0][0]                   
                                                                   res_28_data_slice_3_d128_s2[0][0]
____________________________________________________________________________________________________
res_29_condition_reshape_d256_s2 (None, 128, 2)        0           res_29_dense_condition_8_s2[0][0]
____________________________________________________________________________________________________
res_29_dilated_conv_d256_s2 (Atr (None, 22139, 256)    98304       merge_28[0][0]                   
____________________________________________________________________________________________________
res_29_condition_slice_1_d256_s2 (None, 128)           0           res_29_condition_reshape_d256_s2[
____________________________________________________________________________________________________
res_29_condition_slice_2_d256_s2 (None, 128)           0           res_29_condition_reshape_d256_s2[
____________________________________________________________________________________________________
res_30_data_slice_1_d256_s2 (Sli (None, 22139, 128)    0           res_29_dilated_conv_d256_s2[0][0]
____________________________________________________________________________________________________
res_29_condition_repeat_1_d256_s (None, 22139, 128)    0           res_29_condition_slice_1_d256_s2[
____________________________________________________________________________________________________
res_30_data_slice_2_d256_s2 (Sli (None, 22139, 128)    0           res_29_dilated_conv_d256_s2[0][0]
____________________________________________________________________________________________________
res_29_condition_repeat_2_d256_s (None, 22139, 128)    0           res_29_condition_slice_2_d256_s2[
____________________________________________________________________________________________________
res_29_merge_1_d256_s2 (Merge)   (None, 22139, 128)    0           res_30_data_slice_1_d256_s2[0][0]
                                                                   res_29_condition_repeat_1_d256_s2
____________________________________________________________________________________________________
res_29_merge_2_d256_s2 (Merge)   (None, 22139, 128)    0           res_30_data_slice_2_d256_s2[0][0]
                                                                   res_29_condition_repeat_2_d256_s2
____________________________________________________________________________________________________
activation_58 (Activation)       (None, 22139, 128)    0           res_29_merge_1_d256_s2[0][0]     
____________________________________________________________________________________________________
activation_59 (Activation)       (None, 22139, 128)    0           res_29_merge_2_d256_s2[0][0]     
____________________________________________________________________________________________________
res_29_gated_activation_8_s2 (Me (None, 22139, 128)    0           activation_58[0][0]              
                                                                   activation_59[0][0]              
____________________________________________________________________________________________________
convolution1d_29 (Convolution1D) (None, 22139, 256)    32768       res_29_gated_activation_8_s2[0][0
____________________________________________________________________________________________________
res_29_data_slice_3_d256_s2 (Sli (None, 22139, 128)    0           convolution1d_29[0][0]           
____________________________________________________________________________________________________
res_30_dense_condition_9_s2 (Den (None, 256)           1280        condition_input[0][0]            
____________________________________________________________________________________________________
merge_29 (Merge)                 (None, 22139, 128)    0           merge_28[0][0]                   
                                                                   res_29_data_slice_3_d256_s2[0][0]
____________________________________________________________________________________________________
res_30_condition_reshape_d512_s2 (None, 128, 2)        0           res_30_dense_condition_9_s2[0][0]
____________________________________________________________________________________________________
res_30_dilated_conv_d512_s2 (Atr (None, 22139, 256)    98304       merge_29[0][0]                   
____________________________________________________________________________________________________
res_30_condition_slice_1_d512_s2 (None, 128)           0           res_30_condition_reshape_d512_s2[
____________________________________________________________________________________________________
res_30_condition_slice_2_d512_s2 (None, 128)           0           res_30_condition_reshape_d512_s2[
____________________________________________________________________________________________________
res_30_data_slice_1_d512_s2 (Sli (None, 22139, 128)    0           res_30_dilated_conv_d512_s2[0][0]
____________________________________________________________________________________________________
res_30_condition_repeat_1_d512_s (None, 22139, 128)    0           res_30_condition_slice_1_d512_s2[
____________________________________________________________________________________________________
res_30_data_slice_2_d512_s2 (Sli (None, 22139, 128)    0           res_30_dilated_conv_d512_s2[0][0]
____________________________________________________________________________________________________
res_30_condition_repeat_2_d512_s (None, 22139, 128)    0           res_30_condition_slice_2_d512_s2[
____________________________________________________________________________________________________
res_30_merge_1_d512_s2 (Merge)   (None, 22139, 128)    0           res_30_data_slice_1_d512_s2[0][0]
                                                                   res_30_condition_repeat_1_d512_s2
____________________________________________________________________________________________________
res_30_merge_2_d512_s2 (Merge)   (None, 22139, 128)    0           res_30_data_slice_2_d512_s2[0][0]
                                                                   res_30_condition_repeat_2_d512_s2
____________________________________________________________________________________________________
activation_60 (Activation)       (None, 22139, 128)    0           res_30_merge_1_d512_s2[0][0]     
____________________________________________________________________________________________________
activation_61 (Activation)       (None, 22139, 128)    0           res_30_merge_2_d512_s2[0][0]     
____________________________________________________________________________________________________
res_30_gated_activation_9_s2 (Me (None, 22139, 128)    0           activation_60[0][0]              
                                                                   activation_61[0][0]              
____________________________________________________________________________________________________
convolution1d_30 (Convolution1D) (None, 22139, 256)    32768       res_30_gated_activation_9_s2[0][0
____________________________________________________________________________________________________
res_1_data_slice_4_d1_s0 (Slice) (None, 22139, 128)    0           convolution1d_1[0][0]            
____________________________________________________________________________________________________
res_2_data_slice_4_d2_s0 (Slice) (None, 22139, 128)    0           convolution1d_2[0][0]            
____________________________________________________________________________________________________
res_3_data_slice_4_d4_s0 (Slice) (None, 22139, 128)    0           convolution1d_3[0][0]            
____________________________________________________________________________________________________
res_4_data_slice_4_d8_s0 (Slice) (None, 22139, 128)    0           convolution1d_4[0][0]            
____________________________________________________________________________________________________
res_5_data_slice_4_d16_s0 (Slice (None, 22139, 128)    0           convolution1d_5[0][0]            
____________________________________________________________________________________________________
res_6_data_slice_4_d32_s0 (Slice (None, 22139, 128)    0           convolution1d_6[0][0]            
____________________________________________________________________________________________________
res_7_data_slice_4_d64_s0 (Slice (None, 22139, 128)    0           convolution1d_7[0][0]            
____________________________________________________________________________________________________
res_8_data_slice_4_d128_s0 (Slic (None, 22139, 128)    0           convolution1d_8[0][0]            
____________________________________________________________________________________________________
res_9_data_slice_4_d256_s0 (Slic (None, 22139, 128)    0           convolution1d_9[0][0]            
____________________________________________________________________________________________________
res_10_data_slice_4_d512_s0 (Sli (None, 22139, 128)    0           convolution1d_10[0][0]           
____________________________________________________________________________________________________
res_11_data_slice_4_d1_s1 (Slice (None, 22139, 128)    0           convolution1d_11[0][0]           
____________________________________________________________________________________________________
res_12_data_slice_4_d2_s1 (Slice (None, 22139, 128)    0           convolution1d_12[0][0]           
____________________________________________________________________________________________________
res_13_data_slice_4_d4_s1 (Slice (None, 22139, 128)    0           convolution1d_13[0][0]           
____________________________________________________________________________________________________
res_14_data_slice_4_d8_s1 (Slice (None, 22139, 128)    0           convolution1d_14[0][0]           
____________________________________________________________________________________________________
res_15_data_slice_4_d16_s1 (Slic (None, 22139, 128)    0           convolution1d_15[0][0]           
____________________________________________________________________________________________________
res_16_data_slice_4_d32_s1 (Slic (None, 22139, 128)    0           convolution1d_16[0][0]           
____________________________________________________________________________________________________
res_17_data_slice_4_d64_s1 (Slic (None, 22139, 128)    0           convolution1d_17[0][0]           
____________________________________________________________________________________________________
res_18_data_slice_4_d128_s1 (Sli (None, 22139, 128)    0           convolution1d_18[0][0]           
____________________________________________________________________________________________________
res_19_data_slice_4_d256_s1 (Sli (None, 22139, 128)    0           convolution1d_19[0][0]           
____________________________________________________________________________________________________
res_20_data_slice_4_d512_s1 (Sli (None, 22139, 128)    0           convolution1d_20[0][0]           
____________________________________________________________________________________________________
res_21_data_slice_4_d1_s2 (Slice (None, 22139, 128)    0           convolution1d_21[0][0]           
____________________________________________________________________________________________________
res_22_data_slice_4_d2_s2 (Slice (None, 22139, 128)    0           convolution1d_22[0][0]           
____________________________________________________________________________________________________
res_23_data_slice_4_d4_s2 (Slice (None, 22139, 128)    0           convolution1d_23[0][0]           
____________________________________________________________________________________________________
res_24_data_slice_4_d8_s2 (Slice (None, 22139, 128)    0           convolution1d_24[0][0]           
____________________________________________________________________________________________________
res_25_data_slice_4_d16_s2 (Slic (None, 22139, 128)    0           convolution1d_25[0][0]           
____________________________________________________________________________________________________
res_26_data_slice_4_d32_s2 (Slic (None, 22139, 128)    0           convolution1d_26[0][0]           
____________________________________________________________________________________________________
res_27_data_slice_4_d64_s2 (Slic (None, 22139, 128)    0           convolution1d_27[0][0]           
____________________________________________________________________________________________________
res_28_data_slice_4_d128_s2 (Sli (None, 22139, 128)    0           convolution1d_28[0][0]           
____________________________________________________________________________________________________
res_29_data_slice_4_d256_s2 (Sli (None, 22139, 128)    0           convolution1d_29[0][0]           
____________________________________________________________________________________________________
res_30_data_slice_4_d512_s2 (Sli (None, 22139, 128)    0           convolution1d_30[0][0]           
____________________________________________________________________________________________________
res_1_keep_samples_of_interest_d (None, 16003, 128)    0           res_1_data_slice_4_d1_s0[0][0]   
____________________________________________________________________________________________________
res_2_keep_samples_of_interest_d (None, 16003, 128)    0           res_2_data_slice_4_d2_s0[0][0]   
____________________________________________________________________________________________________
res_3_keep_samples_of_interest_d (None, 16003, 128)    0           res_3_data_slice_4_d4_s0[0][0]   
____________________________________________________________________________________________________
res_4_keep_samples_of_interest_d (None, 16003, 128)    0           res_4_data_slice_4_d8_s0[0][0]   
____________________________________________________________________________________________________
res_5_keep_samples_of_interest_d (None, 16003, 128)    0           res_5_data_slice_4_d16_s0[0][0]  
____________________________________________________________________________________________________
res_6_keep_samples_of_interest_d (None, 16003, 128)    0           res_6_data_slice_4_d32_s0[0][0]  
____________________________________________________________________________________________________
res_7_keep_samples_of_interest_d (None, 16003, 128)    0           res_7_data_slice_4_d64_s0[0][0]  
____________________________________________________________________________________________________
res_8_keep_samples_of_interest_d (None, 16003, 128)    0           res_8_data_slice_4_d128_s0[0][0] 
____________________________________________________________________________________________________
res_9_keep_samples_of_interest_d (None, 16003, 128)    0           res_9_data_slice_4_d256_s0[0][0] 
____________________________________________________________________________________________________
res_10_keep_samples_of_interest_ (None, 16003, 128)    0           res_10_data_slice_4_d512_s0[0][0]
____________________________________________________________________________________________________
res_11_keep_samples_of_interest_ (None, 16003, 128)    0           res_11_data_slice_4_d1_s1[0][0]  
____________________________________________________________________________________________________
res_12_keep_samples_of_interest_ (None, 16003, 128)    0           res_12_data_slice_4_d2_s1[0][0]  
____________________________________________________________________________________________________
res_13_keep_samples_of_interest_ (None, 16003, 128)    0           res_13_data_slice_4_d4_s1[0][0]  
____________________________________________________________________________________________________
res_14_keep_samples_of_interest_ (None, 16003, 128)    0           res_14_data_slice_4_d8_s1[0][0]  
____________________________________________________________________________________________________
res_15_keep_samples_of_interest_ (None, 16003, 128)    0           res_15_data_slice_4_d16_s1[0][0] 
____________________________________________________________________________________________________
res_16_keep_samples_of_interest_ (None, 16003, 128)    0           res_16_data_slice_4_d32_s1[0][0] 
____________________________________________________________________________________________________
res_17_keep_samples_of_interest_ (None, 16003, 128)    0           res_17_data_slice_4_d64_s1[0][0] 
____________________________________________________________________________________________________
res_18_keep_samples_of_interest_ (None, 16003, 128)    0           res_18_data_slice_4_d128_s1[0][0]
____________________________________________________________________________________________________
res_19_keep_samples_of_interest_ (None, 16003, 128)    0           res_19_data_slice_4_d256_s1[0][0]
____________________________________________________________________________________________________
res_20_keep_samples_of_interest_ (None, 16003, 128)    0           res_20_data_slice_4_d512_s1[0][0]
____________________________________________________________________________________________________
res_21_keep_samples_of_interest_ (None, 16003, 128)    0           res_21_data_slice_4_d1_s2[0][0]  
____________________________________________________________________________________________________
res_22_keep_samples_of_interest_ (None, 16003, 128)    0           res_22_data_slice_4_d2_s2[0][0]  
____________________________________________________________________________________________________
res_23_keep_samples_of_interest_ (None, 16003, 128)    0           res_23_data_slice_4_d4_s2[0][0]  
____________________________________________________________________________________________________
res_24_keep_samples_of_interest_ (None, 16003, 128)    0           res_24_data_slice_4_d8_s2[0][0]  
____________________________________________________________________________________________________
res_25_keep_samples_of_interest_ (None, 16003, 128)    0           res_25_data_slice_4_d16_s2[0][0] 
____________________________________________________________________________________________________
res_26_keep_samples_of_interest_ (None, 16003, 128)    0           res_26_data_slice_4_d32_s2[0][0] 
____________________________________________________________________________________________________
res_27_keep_samples_of_interest_ (None, 16003, 128)    0           res_27_data_slice_4_d64_s2[0][0] 
____________________________________________________________________________________________________
res_28_keep_samples_of_interest_ (None, 16003, 128)    0           res_28_data_slice_4_d128_s2[0][0]
____________________________________________________________________________________________________
res_29_keep_samples_of_interest_ (None, 16003, 128)    0           res_29_data_slice_4_d256_s2[0][0]
____________________________________________________________________________________________________
res_30_keep_samples_of_interest_ (None, 16003, 128)    0           res_30_data_slice_4_d512_s2[0][0]
____________________________________________________________________________________________________
merge_31 (Merge)                 (None, 16003, 128)    0           res_1_keep_samples_of_interest_d1
                                                                   res_2_keep_samples_of_interest_d2
                                                                   res_3_keep_samples_of_interest_d4
                                                                   res_4_keep_samples_of_interest_d8
                                                                   res_5_keep_samples_of_interest_d1
…
                                                                   res_29_keep_samples_of_interest_d
                                                                   res_30_keep_samples_of_interest_d
____________________________________________________________________________________________________
activation_1 (Activation)        multiple              0           merge_31[0][0]                   
                                                                   penultimate_conv_1d_condition_mer
____________________________________________________________________________________________________
penultimate_conv_1d_condition (D (None, 2048)          10240       condition_input[0][0]            
____________________________________________________________________________________________________
convolution1d_31 (Convolution1D) (None, 16003, 2048)   786432      activation_1[0][0]               
____________________________________________________________________________________________________
penultimate_conv_1d_condition_re (None, 16003, 2048)   0           penultimate_conv_1d_condition[0][
____________________________________________________________________________________________________
penultimate_conv_1d_condition_me (None, 16003, 2048)   0           convolution1d_31[0][0]           
                                                                   penultimate_conv_1d_condition_rep
____________________________________________________________________________________________________
final_conv_1d_condition (Dense)  (None, 256)           1280        condition_input[0][0]            
____________________________________________________________________________________________________
convolution1d_32 (Convolution1D) (None, 16003, 256)    1572864     activation_1[1][0]               
____________________________________________________________________________________________________
final_conv_1d_condition_repeat ( (None, 16003, 256)    0           final_conv_1d_condition[0][0]    
____________________________________________________________________________________________________
final_conv_1d_condition_merge (M (None, 16003, 256)    0           convolution1d_32[0][0]           
                                                                   final_conv_1d_condition_repeat[0]
____________________________________________________________________________________________________
convolution1d_33 (Convolution1D) (None, 16003, 1)      257         final_conv_1d_condition_merge[0][
____________________________________________________________________________________________________
data_input_target_field_length ( (None, 16003, 1)      0           addsingletondepth_1[0][0]        
____________________________________________________________________________________________________
subtract_layer (Subtract)        (None, 16003, 1)      0           data_input_target_field_length[0]
                                                                   convolution1d_33[0][0]           
____________________________________________________________________________________________________
data_output_1 (Lambda)           (None, 16003)         0           convolution1d_33[0][0]           
____________________________________________________________________________________________________
data_output_2 (Lambda)           (None, 16003)         0           subtract_layer[0][0]             
====================================================================================================
Total params: 6,342,657
Trainable params: 6,342,657
Non-trainable params: 0
____________________________________________________________________________________________________
